…
NormalInit: mean=0, std=0.01, bias=0 

decode_head.linear_fuse.conv.weight - torch.Size([128, 128, 1, 1]): 
Initialized by user-defined `init_weights` in ConvModule  

decode_head.linear_fuse.bn.weight - torch.Size([128]): 
The value is the same before and after calling `init_weights` of EncoderDecoder  

decode_head.linear_fuse.bn.bias - torch.Size([128]): 
The value is the same before and after calling `init_weights` of EncoderDecoder  
2022-12-17 15:05:10,575 - mmseg - INFO - EncoderDecoder(
  (backbone): Topformer(
    (tpm): TokenPyramidModule(
      (stem): Sequential(
        (0): Conv2d_BN(
          (c): Conv2d(3, 16, kernel_size=(3, 3), stride=(2, 2), padding=(1, 1), bias=False)
          (bn): SyncBatchNorm(16, eps=1e-05, momentum=0.1, affine=True, track_running_stats=True)
        )
        (1): ReLU()
      )
      (layer1): InvertedResidual(
        (conv): Sequential(
          (0): Conv2d_BN(
            (c): Conv2d(16, 16, kernel_size=(3, 3), stride=(1, 1), padding=(1, 1), groups=16, bias=False)
            (bn): SyncBatchNorm(16, eps=1e-05, momentum=0.1, affine=True, track_running_stats=True)
          )
          (1): ReLU()
          (2): Conv2d_BN(
            (c): Conv2d(16, 16, kernel_size=(1, 1), stride=(1, 1), bias=False)
            (bn): SyncBatchNorm(16, eps=1e-05, momentum=0.1, affine=True, track_running_stats=True)
          )
        )
      )
      (layer2): InvertedResidual(
        (conv): Sequential(
          (0): Conv2d_BN(
            (c): Conv2d(16, 64, kernel_size=(1, 1), stride=(1, 1), bias=False)
            (bn): SyncBatchNorm(64, eps=1e-05, momentum=0.1, affine=True, track_running_stats=True)
          )
          (1): ReLU()
          (2): Conv2d_BN(
            (c): Conv2d(64, 64, kernel_size=(3, 3), stride=(2, 2), padding=(1, 1), groups=64, bias=False)
            (bn): SyncBatchNorm(64, eps=1e-05, momentum=0.1, affine=True, track_running_stats=True)
          )
          (3): ReLU()
          (4): Conv2d_BN(
            (c): Conv2d(64, 16, kernel_size=(1, 1), stride=(1, 1), bias=False)
            (bn): SyncBatchNorm(16, eps=1e-05, momentum=0.1, affine=True, track_running_stats=True)
          )
        )
      )
      (layer3): InvertedResidual(
        (conv): Sequential(
          (0): Conv2d_BN(
            (c): Conv2d(16, 48, kernel_size=(1, 1), stride=(1, 1), bias=False)
            (bn): SyncBatchNorm(48, eps=1e-05, momentum=0.1, affine=True, track_running_stats=True)
          )
          (1): ReLU()
          (2): Conv2d_BN(
            (c): Conv2d(48, 48, kernel_size=(3, 3), stride=(1, 1), padding=(1, 1), groups=48, bias=False)
            (bn): SyncBatchNorm(48, eps=1e-05, momentum=0.1, affine=True, track_running_stats=True)
          )
          (3): ReLU()
          (4): Conv2d_BN(
            (c): Conv2d(48, 16, kernel_size=(1, 1), stride=(1, 1), bias=False)
            (bn): SyncBatchNorm(16, eps=1e-05, momentum=0.1, affine=True, track_running_stats=True)
          )
        )
      )
      (layer4): InvertedResidual(
        (conv): Sequential(
          (0): Conv2d_BN(
            (c): Conv2d(16, 48, kernel_size=(1, 1), stride=(1, 1), bias=False)
            (bn): SyncBatchNorm(48, eps=1e-05, momentum=0.1, affine=True, track_running_stats=True)
          )
          (1): ReLU()
          (2): Conv2d_BN(
            (c): Conv2d(48, 48, kernel_size=(5, 5), stride=(2, 2), padding=(2, 2), groups=48, bias=False)
            (bn): SyncBatchNorm(48, eps=1e-05, momentum=0.1, affine=True, track_running_stats=True)
          )
          (3): ReLU()
          (4): Conv2d_BN(
            (c): Conv2d(48, 32, kernel_size=(1, 1), stride=(1, 1), bias=False)
            (bn): SyncBatchNorm(32, eps=1e-05, momentum=0.1, affine=True, track_running_stats=True)
          )
        )
      )
      (layer5): InvertedResidual(
        (conv): Sequential(
          (0): Conv2d_BN(
            (c): Conv2d(32, 96, kernel_size=(1, 1), stride=(1, 1), bias=False)
            (bn): SyncBatchNorm(96, eps=1e-05, momentum=0.1, affine=True, track_running_stats=True)
          )
          (1): ReLU()
          (2): Conv2d_BN(
            (c): Conv2d(96, 96, kernel_size=(5, 5), stride=(1, 1), padding=(2, 2), groups=96, bias=False)
            (bn): SyncBatchNorm(96, eps=1e-05, momentum=0.1, affine=True, track_running_stats=True)
          )
          (3): ReLU()
          (4): Conv2d_BN(
            (c): Conv2d(96, 32, kernel_size=(1, 1), stride=(1, 1), bias=False)
            (bn): SyncBatchNorm(32, eps=1e-05, momentum=0.1, affine=True, track_running_stats=True)
          )
        )
      )
      (layer6): InvertedResidual(
        (conv): Sequential(
          (0): Conv2d_BN(
            (c): Conv2d(32, 96, kernel_size=(1, 1), stride=(1, 1), bias=False)
            (bn): SyncBatchNorm(96, eps=1e-05, momentum=0.1, affine=True, track_running_stats=True)
          )
          (1): ReLU()
          (2): Conv2d_BN(
            (c): Conv2d(96, 96, kernel_size=(3, 3), stride=(2, 2), padding=(1, 1), groups=96, bias=False)
            (bn): SyncBatchNorm(96, eps=1e-05, momentum=0.1, affine=True, track_running_stats=True)
          )
          (3): ReLU()
          (4): Conv2d_BN(
            (c): Conv2d(96, 64, kernel_size=(1, 1), stride=(1, 1), bias=False)
            (bn): SyncBatchNorm(64, eps=1e-05, momentum=0.1, affine=True, track_running_stats=True)
          )
        )
      )
      (layer7): InvertedResidual(
        (conv): Sequential(
          (0): Conv2d_BN(
            (c): Conv2d(64, 192, kernel_size=(1, 1), stride=(1, 1), bias=False)
            (bn): SyncBatchNorm(192, eps=1e-05, momentum=0.1, affine=True, track_running_stats=True)
          )
          (1): ReLU()
          (2): Conv2d_BN(
            (c): Conv2d(192, 192, kernel_size=(3, 3), stride=(1, 1), padding=(1, 1), groups=192, bias=False)
            (bn): SyncBatchNorm(192, eps=1e-05, momentum=0.1, affine=True, track_running_stats=True)
          )
          (3): ReLU()
          (4): Conv2d_BN(
            (c): Conv2d(192, 64, kernel_size=(1, 1), stride=(1, 1), bias=False)
            (bn): SyncBatchNorm(64, eps=1e-05, momentum=0.1, affine=True, track_running_stats=True)
          )
        )
      )
      (layer8): InvertedResidual(
        (conv): Sequential(
          (0): Conv2d_BN(
            (c): Conv2d(64, 384, kernel_size=(1, 1), stride=(1, 1), bias=False)
            (bn): SyncBatchNorm(384, eps=1e-05, momentum=0.1, affine=True, track_running_stats=True)
          )
          (1): ReLU()
          (2): Conv2d_BN(
            (c): Conv2d(384, 384, kernel_size=(5, 5), stride=(2, 2), padding=(2, 2), groups=384, bias=False)
            (bn): SyncBatchNorm(384, eps=1e-05, momentum=0.1, affine=True, track_running_stats=True)
          )
          (3): ReLU()
          (4): Conv2d_BN(
            (c): Conv2d(384, 96, kernel_size=(1, 1), stride=(1, 1), bias=False)
            (bn): SyncBatchNorm(96, eps=1e-05, momentum=0.1, affine=True, track_running_stats=True)
          )
        )
      )
      (layer9): InvertedResidual(
        (conv): Sequential(
          (0): Conv2d_BN(
            (c): Conv2d(96, 576, kernel_size=(1, 1), stride=(1, 1), bias=False)
            (bn): SyncBatchNorm(576, eps=1e-05, momentum=0.1, affine=True, track_running_stats=True)
          )
          (1): ReLU()
          (2): Conv2d_BN(
            (c): Conv2d(576, 576, kernel_size=(5, 5), stride=(1, 1), padding=(2, 2), groups=576, bias=False)
            (bn): SyncBatchNorm(576, eps=1e-05, momentum=0.1, affine=True, track_running_stats=True)
          )
          (3): ReLU()
          (4): Conv2d_BN(
            (c): Conv2d(576, 96, kernel_size=(1, 1), stride=(1, 1), bias=False)
            (bn): SyncBatchNorm(96, eps=1e-05, momentum=0.1, affine=True, track_running_stats=True)
          )
        )
      )
    )
    (ppa): PyramidPoolAgg()
    (trans): BasicLayer(
      (transformer_blocks): ModuleList(
        (0): Block(
          (attn): Attention(
            (to_q): Conv2d_BN(
              (c): Conv2d(208, 64, kernel_size=(1, 1), stride=(1, 1), bias=False)
              (bn): SyncBatchNorm(64, eps=1e-05, momentum=0.1, affine=True, track_running_stats=True)
            )
            (to_k): Conv2d_BN(
              (c): Conv2d(208, 64, kernel_size=(1, 1), stride=(1, 1), bias=False)
              (bn): SyncBatchNorm(64, eps=1e-05, momentum=0.1, affine=True, track_running_stats=True)
            )
            (to_v): Conv2d_BN(
              (c): Conv2d(208, 128, kernel_size=(1, 1), stride=(1, 1), bias=False)
              (bn): SyncBatchNorm(128, eps=1e-05, momentum=0.1, affine=True, track_running_stats=True)
            )
            (proj): Sequential(
              (0): ReLU6()
              (1): Conv2d_BN(
                (c): Conv2d(128, 208, kernel_size=(1, 1), stride=(1, 1), bias=False)
                (bn): SyncBatchNorm(208, eps=1e-05, momentum=0.1, affine=True, track_running_stats=True)
              )
            )
          )
          (drop_path): Identity()
          (mlp): Mlp(
            (fc1): Conv2d_BN(
              (c): Conv2d(208, 416, kernel_size=(1, 1), stride=(1, 1), bias=False)
              (bn): SyncBatchNorm(416, eps=1e-05, momentum=0.1, affine=True, track_running_stats=True)
            )
            (dwconv): Conv2d(416, 416, kernel_size=(3, 3), stride=(1, 1), padding=(1, 1), groups=416)
            (act): ReLU6()
            (fc2): Conv2d_BN(
              (c): Conv2d(416, 208, kernel_size=(1, 1), stride=(1, 1), bias=False)
              (bn): SyncBatchNorm(208, eps=1e-05, momentum=0.1, affine=True, track_running_stats=True)
            )
            (drop): Dropout(p=0, inplace=False)
          )
        )
        (1): Block(
          (attn): Attention(
            (to_q): Conv2d_BN(
              (c): Conv2d(208, 64, kernel_size=(1, 1), stride=(1, 1), bias=False)
              (bn): SyncBatchNorm(64, eps=1e-05, momentum=0.1, affine=True, track_running_stats=True)
            )
            (to_k): Conv2d_BN(
              (c): Conv2d(208, 64, kernel_size=(1, 1), stride=(1, 1), bias=False)
              (bn): SyncBatchNorm(64, eps=1e-05, momentum=0.1, affine=True, track_running_stats=True)
            )
            (to_v): Conv2d_BN(
              (c): Conv2d(208, 128, kernel_size=(1, 1), stride=(1, 1), bias=False)
              (bn): SyncBatchNorm(128, eps=1e-05, momentum=0.1, affine=True, track_running_stats=True)
            )
            (proj): Sequential(
              (0): ReLU6()
              (1): Conv2d_BN(
                (c): Conv2d(128, 208, kernel_size=(1, 1), stride=(1, 1), bias=False)
                (bn): SyncBatchNorm(208, eps=1e-05, momentum=0.1, affine=True, track_running_stats=True)
              )
            )
          )
          (drop_path): DropPath()
          (mlp): Mlp(
            (fc1): Conv2d_BN(
              (c): Conv2d(208, 416, kernel_size=(1, 1), stride=(1, 1), bias=False)
              (bn): SyncBatchNorm(416, eps=1e-05, momentum=0.1, affine=True, track_running_stats=True)
            )
            (dwconv): Conv2d(416, 416, kernel_size=(3, 3), stride=(1, 1), padding=(1, 1), groups=416)
            (act): ReLU6()
            (fc2): Conv2d_BN(
              (c): Conv2d(416, 208, kernel_size=(1, 1), stride=(1, 1), bias=False)
              (bn): SyncBatchNorm(208, eps=1e-05, momentum=0.1, affine=True, track_running_stats=True)
            )
            (drop): Dropout(p=0, inplace=False)
          )
        )
        (2): Block(
          (attn): Attention(
            (to_q): Conv2d_BN(
              (c): Conv2d(208, 64, kernel_size=(1, 1), stride=(1, 1), bias=False)
              (bn): SyncBatchNorm(64, eps=1e-05, momentum=0.1, affine=True, track_running_stats=True)
            )
            (to_k): Conv2d_BN(
              (c): Conv2d(208, 64, kernel_size=(1, 1), stride=(1, 1), bias=False)
              (bn): SyncBatchNorm(64, eps=1e-05, momentum=0.1, affine=True, track_running_stats=True)
            )
            (to_v): Conv2d_BN(
              (c): Conv2d(208, 128, kernel_size=(1, 1), stride=(1, 1), bias=False)
              (bn): SyncBatchNorm(128, eps=1e-05, momentum=0.1, affine=True, track_running_stats=True)
            )
            (proj): Sequential(
              (0): ReLU6()
              (1): Conv2d_BN(
                (c): Conv2d(128, 208, kernel_size=(1, 1), stride=(1, 1), bias=False)
                (bn): SyncBatchNorm(208, eps=1e-05, momentum=0.1, affine=True, track_running_stats=True)
              )
            )
          )
          (drop_path): DropPath()
          (mlp): Mlp(
            (fc1): Conv2d_BN(
              (c): Conv2d(208, 416, kernel_size=(1, 1), stride=(1, 1), bias=False)
              (bn): SyncBatchNorm(416, eps=1e-05, momentum=0.1, affine=True, track_running_stats=True)
            )
            (dwconv): Conv2d(416, 416, kernel_size=(3, 3), stride=(1, 1), padding=(1, 1), groups=416)
            (act): ReLU6()
            (fc2): Conv2d_BN(
              (c): Conv2d(416, 208, kernel_size=(1, 1), stride=(1, 1), bias=False)
              (bn): SyncBatchNorm(208, eps=1e-05, momentum=0.1, affine=True, track_running_stats=True)
            )
            (drop): Dropout(p=0, inplace=False)
          )
        )
        (3): Block(
          (attn): Attention(
            (to_q): Conv2d_BN(
              (c): Conv2d(208, 64, kernel_size=(1, 1), stride=(1, 1), bias=False)
              (bn): SyncBatchNorm(64, eps=1e-05, momentum=0.1, affine=True, track_running_stats=True)
            )
            (to_k): Conv2d_BN(
              (c): Conv2d(208, 64, kernel_size=(1, 1), stride=(1, 1), bias=False)
              (bn): SyncBatchNorm(64, eps=1e-05, momentum=0.1, affine=True, track_running_stats=True)
            )
            (to_v): Conv2d_BN(
              (c): Conv2d(208, 128, kernel_size=(1, 1), stride=(1, 1), bias=False)
              (bn): SyncBatchNorm(128, eps=1e-05, momentum=0.1, affine=True, track_running_stats=True)
            )
            (proj): Sequential(
              (0): ReLU6()
              (1): Conv2d_BN(
                (c): Conv2d(128, 208, kernel_size=(1, 1), stride=(1, 1), bias=False)
                (bn): SyncBatchNorm(208, eps=1e-05, momentum=0.1, affine=True, track_running_stats=True)
              )
            )
          )
          (drop_path): DropPath()
          (mlp): Mlp(
            (fc1): Conv2d_BN(
              (c): Conv2d(208, 416, kernel_size=(1, 1), stride=(1, 1), bias=False)
              (bn): SyncBatchNorm(416, eps=1e-05, momentum=0.1, affine=True, track_running_stats=True)
            )
            (dwconv): Conv2d(416, 416, kernel_size=(3, 3), stride=(1, 1), padding=(1, 1), groups=416)
            (act): ReLU6()
            (fc2): Conv2d_BN(
              (c): Conv2d(416, 208, kernel_size=(1, 1), stride=(1, 1), bias=False)
              (bn): SyncBatchNorm(208, eps=1e-05, momentum=0.1, affine=True, track_running_stats=True)
            )
            (drop): Dropout(p=0, inplace=False)
          )
        )
      )
    )
    (SIM): ModuleList(
      (0): Identity()
      (1): InjectionMultiSum(
        (local_embedding): ConvModule(
          (conv): Conv2d(32, 128, kernel_size=(1, 1), stride=(1, 1), bias=False)
          (bn): SyncBatchNorm(128, eps=1e-05, momentum=0.1, affine=True, track_running_stats=True)
        )
        (global_embedding): ConvModule(
          (conv): Conv2d(32, 128, kernel_size=(1, 1), stride=(1, 1), bias=False)
          (bn): SyncBatchNorm(128, eps=1e-05, momentum=0.1, affine=True, track_running_stats=True)
        )
        (global_act): ConvModule(
          (conv): Conv2d(32, 128, kernel_size=(1, 1), stride=(1, 1), bias=False)
          (bn): SyncBatchNorm(128, eps=1e-05, momentum=0.1, affine=True, track_running_stats=True)
        )
        (act): h_sigmoid(
          (relu): ReLU6(inplace=True)
        )
      )
      (2): InjectionMultiSum(
        (local_embedding): ConvModule(
          (conv): Conv2d(64, 128, kernel_size=(1, 1), stride=(1, 1), bias=False)
          (bn): SyncBatchNorm(128, eps=1e-05, momentum=0.1, affine=True, track_running_stats=True)
        )
        (global_embedding): ConvModule(
          (conv): Conv2d(64, 128, kernel_size=(1, 1), stride=(1, 1), bias=False)
          (bn): SyncBatchNorm(128, eps=1e-05, momentum=0.1, affine=True, track_running_stats=True)
        )
        (global_act): ConvModule(
          (conv): Conv2d(64, 128, kernel_size=(1, 1), stride=(1, 1), bias=False)
          (bn): SyncBatchNorm(128, eps=1e-05, momentum=0.1, affine=True, track_running_stats=True)
        )
        (act): h_sigmoid(
          (relu): ReLU6(inplace=True)
        )
      )
      (3): InjectionMultiSum(
        (local_embedding): ConvModule(
          (conv): Conv2d(96, 128, kernel_size=(1, 1), stride=(1, 1), bias=False)
          (bn): SyncBatchNorm(128, eps=1e-05, momentum=0.1, affine=True, track_running_stats=True)
        )
        (global_embedding): ConvModule(
          (conv): Conv2d(96, 128, kernel_size=(1, 1), stride=(1, 1), bias=False)
          (bn): SyncBatchNorm(128, eps=1e-05, momentum=0.1, affine=True, track_running_stats=True)
        )
        (global_act): ConvModule(
          (conv): Conv2d(96, 128, kernel_size=(1, 1), stride=(1, 1), bias=False)
          (bn): SyncBatchNorm(128, eps=1e-05, momentum=0.1, affine=True, track_running_stats=True)
        )
        (act): h_sigmoid(
          (relu): ReLU6(inplace=True)
        )
      )
    )
  )
  init_cfg={'type': 'Pretrained', 'checkpoint': 'modelzoos/classification/topformer-T-224-66.2.pth'}
  (decode_head): SimpleHead(
    input_transform=multiple_select, ignore_index=255, align_corners=False
    (loss_decode): CrossEntropyLoss()
    (conv_seg): Conv2d(128, 19, kernel_size=(1, 1), stride=(1, 1))
    (dropout): Dropout2d(p=0.1, inplace=False)
    (linear_fuse): ConvModule(
      (conv): Conv2d(128, 128, kernel_size=(1, 1), stride=(1, 1), bias=False)
      (bn): SyncBatchNorm(128, eps=1e-05, momentum=0.1, affine=True, track_running_stats=True)
      (activate): ReLU(inplace=True)
    )
  )
  init_cfg={'type': 'Normal', 'std': 0.01, 'override': {'name': 'conv_seg'}}
)
2022-12-17 15:05:10,619 - mmseg - INFO - Loaded 2975 images
2022-12-17 15:05:11,506 - mmseg - INFO - Loaded 500 images
2022-12-17 15:05:11,507 - mmseg - INFO - Start running, host: sonny@sonny-thermaltake, work_dir: /mnt/data/sonny/checkpoints/topformer
…
